2-Convolutional Neural Networks/mnist_model/mnist_full.pth (torch, 888503 bytes, 8 tensors)

weight f4 [32, 1, 3, 3]
000000 65 fb f5 bd 18 34 bc be eb 8f 55 3e 97 82 5d 3e
       -0.1201084 -0.36758494 0.20855682 0.21631847
000010 31 a1 34 3e 64 f8 ba 3e 55 03 64 3d e2 0b 86 3e
       0.17639615 0.36517632 0.05566724 0.2618094
000020 30 92 80 be 36 da a3 be 2e 69 0c bf 6a bf 31 bd
       -0.25111532 -0.3200242 -0.5484799 -0.043395437
000030 70 6f a8 be e2 46 cc 3e 58 20 ee 3e 64 9a 02 3f
       -0.3289752 0.3989783 0.4650905 0.5101683
000040 72 7b ba 3e ac 5a a4 bd 45 18 ca 3e ec 0f ad be
       0.36422306 -0.08025107 0.3947164 -0.3380121
000050 f1 b1 b9 be 57 df ab be 5d 14 91 be 67 25 0c be
       -0.3626857 -0.33568832 -0.28335848 -0.13686143
000060 9d f9 d3 be 0d d5 9e be ed bf 40 be 7c a8 4f 3e
       -0.41401377 -0.3102192 -0.18823214 0.20279115
000070 28 28 76 be 9c 12 99 be e2 e6 93 be 6f f6 27 be
       -0.24038756 -0.2989701 -0.28887087 -0.164026
000080 2e 5d b3 bd 54 31 a9 be 0b d1 1f be 5e d2 d4 3b
       -0.08758007 -0.33045447 -0.15607087 0.0064948043
000090 36 11 61 3d 96 bb 43 bd 00 cf 1a bd 0e 10 5e be
       0.054948054 -0.047786318 -0.037795067 -0.21685812
0000a0 fb dd 2e 3e 30 75 a4 bd 16 60 69 be 1b 67 a4 bd
       0.17076866 -0.08030164 -0.2279056 -0.08027478
0000b0 a0 be 3e bd fb 8e 19 3f ef 1b db 3e 9a 71 ab be
       -0.046568513 0.59983796 0.4279475 -0.3348511
0000c0 cd 09 d0 3d c8 ff 3a 3f 81 d7 f2 3e 62 f5 40 bd
       0.10158119 0.7304654 0.4743004 -0.047109015
0000d0 3f b6 ad 3d 96 61 19 3f 75 f8 e3 3e 03 2a 99 3e
       0.08482026 0.5991453 0.44525495 0.29914865
0000e0 92 5b 15 3f 78 72 48 bd 63 e7 3d be 7b f2 84 be
       0.5834285 -0.04893729 -0.18545298 -0.25966248
0000f0 60 d2 17 bf e3 9d f3 be d1 af 84 be da d6 83 be
       -0.5930538 -0.47581396 -0.25915387 -0.25749856
000100 75 a0 c6 3e 6f e9 a0 3e a9 cf 21 3e a7 e1 10 3f
       0.38794294 0.31428096 0.15801872 0.5659432
000110 03 2a 0a 3d 65 62 e3 3d 6a 67 f0 3e a7 c1 9a 3e
       0.03373147 0.11102752 0.469539 0.3022587
000120 20 61 52 3e 52 c1 ec 3e 3b bf 4d 3e d8 24 82 3e
       0.20544863 0.46241242 0.2009248 0.25418735
000130 24 8e ba be e8 0f c7 be 59 3c e8 be 4f 79 d5 bd
       -0.3643657 -0.38879323 -0.45358542 -0.104235284
000140 5a 55 4f 3e 9c 98 94 be b3 bc 08 3e dd 94 95 be
       0.20247403 -0.29022682 0.13353233 -0.29215136
000150 33 d7 62 be 40 47 ea bd e6 3a fe bd 85 7f c2 3d
       -0.22152404 -0.11439371 -0.12413578 0.09496979
000160 78 db 8c be 4f 78 ba 3e d1 47 89 3e db 27 ff 3c
       -0.2751119 0.36419913 0.26812604 0.031146934
000170 e3 e7 17 bf 71 f2 06 3f 3c 5b 48 bd ab 8b ee be
       -0.59338206 0.52713686 -0.048915133 -0.46590933
000180 ab 19 c2 3e 12 63 d6 3e ec de 75 3d 55 99 4b be
       0.37910208 0.4187246 0.060027048 -0.1988271
000190 62 a3 ed 3d 20 87 d6 3d 75 d9 81 be 9e af e7 bd
       0.116034284 0.10474992 -0.2536122 -0.11312793
0001a0 30 a8 db 3e a9 90 b9 be 37 a5 49 3e 55 f0 d2 3e
       0.42901754 -0.3624318 0.1969193 0.41198984
0001b0 98 36 03 bf 97 df 23 bf 50 7d 94 be db 33 d6 be
       -0.5125518 -0.64013046 -0.29001856 -0.41836438
0001c0 94 73 96 3e 31 28 12 3f 06 86 88 3e bb ff 2b 3f
       0.29385054 0.5709258 0.26664752 0.6718709
0001d0 7c 08 af 3e dc 6c a7 be 11 28 9c be b2 d7 24 be
       0.3418616 -0.3270024 -0.30499318 -0.16097906
0001e0 bf 3c aa be f6 7c 1c be 19 95 bc 3d 2c 39 f6 bb
       -0.3324947 -0.15282044 0.092081256 -0.0075141396
0001f0 e0 5e 7d bd 4f 57 b8 3c 0b 5b ee 3e 61 39 fc 3d
       -0.061858058 0.02250257 0.46553835 0.12315632
000200 94 5c 70 3e c1 fd d2 3d 3a 67 2f be aa 1b 25 3d
       0.23472816 0.10302306 -0.17129222 0.040309586
000210 91 a7 72 3e 5a 53 47 3e 7c 9c e5 be 80 cc 34 bd
       0.23696734 0.1946539 -0.4484595 -0.04414034
000220 9e 70 a4 be 00 d0 85 3b ab 22 71 3c 40 2c de 3d
       -0.3211717 0.0040836334 0.014717738 0.10848284
000230 eb 43 ea bd 80 73 47 bd eb 80 a7 3d 07 50 a5 be
       -0.114387356 -0.048694134 0.08178886 -0.3228762
000240 0f d4 fc 3e 65 89 20 3f a0 2d be be 2f 34 30 3f
       0.49380538 0.6270965 -0.37144184 0.68829626
000250 62 d1 0b 3f f6 51 07 3f 09 a6 b4 3e 48 9c 0b be
       0.5461637 0.5285944 0.35282925 -0.13633835
000260 86 db cd 3e d1 d9 3a 3c 02 02 ad 3d 6d ba f7 bd
       0.40206546 0.011404471 0.084476486 -0.12096105
000270 e8 cb 88 be be a9 02 3d ac eb bd 3d e6 a7 2b 3e
       -0.26718068 0.03190016 0.092734665 0.16763267
000280 27 28 8f be 8c 24 a5 be 58 74 49 3e 01 2b 84 3d
       -0.2796032 -0.32254446 0.19673288 0.06453515
000290 d2 e7 b1 3d d4 8c e8 bd c7 fc f0 3d 27 e4 46 3e
       0.08686794 -0.11354986 0.117669635 0.1942297
0002a0 f1 e0 c1 be 4c b7 17 3e b9 ca 0c 3e ab 04 67 3e
       -0.3786693 0.14816016 0.13749208 0.22560374
0002b0 cd f5 02 be fd b3 88 3e c4 41 b9 3e 2a 8e 4f 3e
       -0.12789078 0.2669982 0.36182988 0.20269075
0002c0 d1 e7 22 3f 47 35 26 3e eb 1d 38 3f 8f ef 2b 3f
       0.63634974 0.16231261 0.7192065 0.6716241
0002d0 4e 1f 9a 3e 38 26 8b 3e 90 fb 0c 3e 35 c3 02 3f
       0.3010201 0.27177596 0.13767838 0.5107911
0002e0 e4 1b 5a be 53 63 17 be cb fc eb 3e b7 d7 bb be
       -0.21299702 -0.14783983 0.46091303 -0.36688015
0002f0 39 4e da be 5d 00 be 3d a0 09 8f 3e de 79 76 3e
       -0.42637804 0.09277413 0.2793703 0.24069926
000300 2c 55 3c 3e da e4 84 3e c9 e7 49 be c6 84 ee 3e
       0.18391865 0.2595585 -0.19717325 0.46585673
000310 25 9c 01 be 05 40 08 3e d4 81 af 3e e1 a2 10 3f
       -0.1265722 0.13305672 0.34278738 0.56498533
000320 bb 19 08 3f 0c 46 30 3e 5e d9 ca 3e 11 6c a2 be
       0.5316426 0.17214221 0.39618963 -0.31723073
000330 5c 65 8b 3e 8d b1 b9 be 8b 0d ff be 5d 76 96 be
       0.2722577 -0.36268273 -0.4981502 -0.2938718
000340 07 6b d6 3e 6b 5c a9 3e b6 e2 b2 be 6d 2d 12 be
       0.4187853 0.33078322 -0.34938592 -0.14275141
000350 ea d1 a3 3e 4c 5c 58 be 08 48 00 3e e3 88 c8 3e
       0.3199609 -0.21128958 0.12527478 0.39166936
000360 2f a0 a6 be 17 a9 0a bf 1c d1 11 be e2 e7 be 3e
       -0.32544085 -0.5416426 -0.14239925 0.37286288
000370 ec 65 91 3e e8 c6 a3 3d d1 f8 f3 3d 60 c0 86 3e
       0.28398073 0.07996923 0.11912692 0.26318645
000380 29 17 ae 3e 07 6c f8 be b4 c0 a0 bc 46 62 c9 3e
       0.34002045 -0.48519918 -0.019623138 0.3933279
000390 48 91 f5 3e 3e a0 1e 3f 59 28 96 3e 8c 2e 10 3f
       0.47962403 0.6196326 0.29327658 0.56321025
0003a0 40 85 3a be ab 05 ce 3b c2 55 48 3e 2c 32 a0 3e
       -0.18214893 0.006287297 0.19563964 0.31288278
0003b0 83 fc aa bc cb e3 c0 3e de cf 39 be f8 09 b6 bd
       -0.02087236 0.37673792 -0.18145701 -0.0888862
0003c0 59 aa 92 3e 8c d6 c5 3e 20 58 fb 3d 4d 99 f0 3e
       0.2864559 0.3864025 0.12272668 0.4699196
0003d0 5e 9e f7 3d 21 e4 28 3e 5a 45 00 3f 49 1b e7 3e
       0.12090753 0.16493274 0.5010582 0.45138004
0003e0 b1 e7 f9 3e 0e 2a 11 bf 8c 19 46 be 95 90 ba be
       0.4880958 -0.56704795 -0.19345683 -0.36438432
0003f0 c2 51 07 3f 64 be f6 3e cd d6 86 3e 87 9e 0c bd
       0.5285913 0.48192132 0.26335755 -0.03433087

bias f4 [32]
000000 98 02 2d be 24 68 6d ba 5e a9 78 3f a3 4f 10 be
       -0.1689552 -0.00090563507 0.97133434 -0.14092879
000010 08 8c 9f be 73 d8 cb bd f0 ae f3 3e 5d 01 a7 3c
       -0.31161523 -0.09953394 0.47594404 0.020386392
000020 ef b9 80 bb 27 7e cb bd 08 b6 4f bd e2 42 54 bc
       -0.003928415 -0.09936171 -0.050710708 -0.012955399
000030 9f de a5 3c 3e 6c 96 bd 67 0b 1d ba 13 82 71 be
       0.020247756 -0.07344864 -0.0005990774 -0.23584776
000040 c6 a4 02 be a9 e7 69 be 11 c6 19 bd fe 83 35 be
       -0.12758169 -0.22842278 -0.037542406 -0.17726132
000050 bc db 03 3e 74 55 b5 bd 15 b6 6c 3a 0b 92 92 bd
       0.12876791 -0.088541895 0.0009029818 -0.07156762
000060 d3 4a 50 ba 1e eb 16 bc 1c b7 b1 bd 03 dc 22 bb
       -0.000794572 -0.00921133 -0.086775035 -0.0024850375
000070 8c 5c 49 3d a8 36 16 bb d0 13 89 be 90 38 a9 bd
       0.049160525 -0.0022920761 -0.26772928 -0.082627416

weight f4 [64, 32, 3, 3]
000000 09 20 37 3d df e4 e9 bc 24 95 0f bc 04 45 90 3c
       0.044708285 -0.028551517 -0.008763585 0.017611034
000010 d3 33 7a bc 14 58 8a bd 2d 2e db b9 40 e8 00 bc
       -0.015271145 -0.06755081 -0.0004180534 -0.007867873
000020 bb c9 b9 bc 53 38 7a 3c b1 58 af 3b 41 fa 6f bb
       -0.0226792 0.015272218 0.005351149 -0.0036617669
000030 46 85 0b bd dc 33 b8 3c dc df 0a 3d 2b ef 61 3d
       -0.034062646 0.022485666 0.033904895 0.05515973
000040 fc 4d 97 bd 39 40 e0 bc 4b 95 49 bc 61 42 1a bd
       -0.07387921 -0.027374374 -0.012303661 -0.03766096
000050 54 bc 5c 3c e7 1c 45 bd 8a ee 5a bc f1 14 b5 3c
       0.013472635 -0.048123267 -0.013362536 0.022104712
000060 70 a7 0a bd 8d fa 58 3d c1 8d 75 b8 52 b9 ca bc
       -0.033851087 0.05297332 -5.854457e-05 -0.02474657
000070 7e df f1 bc d6 0a 0f bd 80 03 3d 3d 6a cd 01 3b
       -0.029525515 -0.034922443 0.046145916 0.0019806274
000080 d9 5e 50 bc 2b f3 0b bc da 7e 43 bd 79 e1 59 bd
       -0.012717926 -0.0085418625 -0.047728397 -0.053193543
000090 95 cc 39 bd 76 a5 5e bc 42 d1 e4 bc d6 b7 b0 3c
       -0.04536112 -0.013589254 -0.027931813 0.021572035
0000a0 9f 46 20 3d 1e 6e 1d bd a2 f4 1b 3d a1 66 88 bc
       0.03912985 -0.038435094 0.038075097 -0.0166505
0000b0 b4 24 a3 bc 87 8d db 3d 6d d3 98 bd b1 15 00 bd
       -0.019914962 0.107203536 -0.07462201 -0.031270687
0000c0 aa f1 b8 3d a2 76 d8 3c bd fe 98 bd a4 ec 71 3d
       0.09030469 0.026423756 -0.074704625 0.05906357
0000d0 9f c4 9b bd 84 b9 f5 bc 59 fd db 3c 63 2d 29 bd
       -0.07605862 -0.029995687 0.026854204 -0.04130305
0000e0 60 be 0e bd 65 6d b2 bd ff 67 99 bd 76 d0 69 bd
       -0.034849524 -0.087122716 -0.07490539 -0.05708357
0000f0 38 84 7d bd b5 9d 1a bd 2a d8 53 3c c6 d6 3f 39
       -0.06189367 -0.037748057 0.0129299555 0.00018295189
000100 87 99 82 bd 17 bd 90 bd f2 fc e9 3d e3 9f ed bb
       -0.06376939 -0.07067316 0.114251986 -0.007251726
000110 fc 30 a4 bc 38 cc 9f 3d 86 90 c7 3b 04 4c 08 3c
       -0.020042889 0.078026235 0.0060902266 0.008318905
000120 83 24 cf bc 22 b8 42 bd 40 22 60 bd 0d 82 04 bd
       -0.025285965 -0.047538884 -0.054720163 -0.03235059
000130 01 43 34 bc 82 fc cc 3a c2 b1 85 bc 3a 1c 2f bc
       -0.011002303 0.0015639218 -0.016320113 -0.010687882
000140 f4 44 1d 3d 97 8d 2f 3c 13 56 99 bc 1b 3f 07 bd
       0.038395837 0.01071491 -0.018717801 -0.033019166
000150 4e cf 52 bd bc 78 16 bd cf 28 da 3c 85 62 6b 3d
       -0.051467232 -0.036736235 0.026630787 0.057467002
000160 e8 7b fe bb 36 2d 3c 3d 7b 3c 3a 3c f7 01 e9 3c
       -0.0077662356 0.045941554 0.011366959 0.02844332
000170 f4 24 a6 3c 47 6f 11 bd 8d a2 ea 3c da e9 25 bd
       0.020281292 -0.035506513 0.028641963 -0.04050622
000180 36 09 15 3c a9 6b 4f 3d 1b 42 48 bd 06 fc 50 3d
       0.009096434 0.050639782 -0.048891168 0.0510216
000190 93 0b 24 bc 05 d6 51 bd 1c f0 1e 3d 0b 9a 48 bc
       -0.010012525 -0.051229496 0.038803205 -0.012243758
0001a0 17 b1 8f bc cf 93 88 3d 6e 97 38 bd ba 4a 9d 3d
       -0.017540498 0.06668817 -0.04506629 0.076802686
0001b0 1e d0 54 bc 67 8f 1e bd c3 d8 2a bb 51 2b c9 bc
       -0.012989072 -0.038710978 -0.0026069141 -0.024556788
0001c0 9a c9 b0 bd 86 8a ec bc 2c 98 36 3d cc dc ac bd
       -0.086322024 -0.028874647 0.044578716 -0.08440551
0001d0 7d af 2b bc 54 51 2a 3d 03 52 4b 3c 11 74 3d bc
       -0.010478851 0.041581467 0.01240969 -0.011563317
0001e0 53 a0 5a 3d ea 53 00 bd 80 f5 0b 3c 56 29 15 bc
       0.053375553 -0.031330027 0.0085424185 -0.009104094
0001f0 49 9e 6c bd 89 bd 14 bd c4 43 2e 3d be 72 4b 3d
       -0.05776814 -0.036313567 0.042545095 0.049669974
000200 57 e8 96 bd 29 d3 8f 3c 22 2c 73 3d 74 73 51 bd
       -0.07368534 0.017556744 0.05936826 -0.051135495
000210 c1 cb fe 3c 3a c1 be bb 84 22 68 bd ca 7a f4 3b
       0.031103017 -0.0058213742 -0.05667354 0.0074609267
000220 b8 a9 20 3d 1c 79 29 3d 06 4e 87 bc 44 9f 45 bd
       0.039224356 0.041375265 -0.016516697 -0.04824759
000230 36 65 c6 bc ea 71 64 bc be c4 22 3c ce 62 d8 3c
       -0.024218183 -0.013943175 0.009934602 0.026414301
000240 b7 c8 64 3d c6 94 6b bd f9 a8 f1 bd 12 03 a1 3d
       0.05585548 -0.05751493 -0.11799807 0.07861914
000250 56 48 19 3d 7f 37 e0 bd c1 c5 28 3d 27 c8 88 bd
       0.0374225 -0.10948085 0.041204218 -0.06678801
000260 3c 29 8c bd cc d2 c6 3c 75 a5 d1 3c 00 3b 40 3d
       -0.06843802 0.024270438 0.025591591 0.046931267
000270 0d c3 1f bd 28 97 34 bc 93 57 03 3c c4 13 2f 3d
       -0.039004374 -0.011022367 0.008016485 0.04274346
000280 64 ea fa 3c 57 29 36 3b af e7 3b 3d 90 22 31 bc
       0.030629344 0.0027795637 0.045875248 -0.010811463
000290 f6 39 59 bd d3 8a 60 3d 05 b7 55 bd b3 db b2 37
       -0.05303379 0.054819893 -0.052176494 2.1321559e-05
0002a0 d6 d3 9d 3c aa 26 8d bd da 21 1a 3d 9d e8 0b bc
       0.01926605 -0.0689214 0.03762994 -0.008539346
0002b0 95 af 30 bd 6a 21 cf bc c7 a5 e8 3d b7 83 a5 3b
       -0.043136198 -0.025284488 0.113597445 0.005051102
0002c0 06 36 88 bc 08 4b 94 3d c7 00 ac bd 3e bd 1d 3d
       -0.016627323 0.072408736 -0.08398586 0.038510554
0002d0 fb c7 f7 bc 49 c7 07 bd a0 60 03 3d b0 0b 3b bd
       -0.030246725 -0.033149038 0.03207457 -0.045665443
0002e0 9b 21 f0 3b 11 f5 fc bb e3 00 f0 3c 4f 6f 02 3d
       0.007328225 -0.007719644 0.029297298 0.031844433
0002f0 dc 98 8d bd ad f5 2d bd 09 99 80 bd 21 53 ad bd
       -0.06913921 -0.042470623 -0.06279189 -0.08463121
000300 c7 93 5e 3d 58 5a 24 bc 93 0c cd 3c e9 d5 b1 3d
       0.05434015 -0.010031305 0.02503041 0.08683378
000310 c3 ac 66 bd ee ff 88 bd 94 08 ae bd 12 46 a6 bd
       -0.056317102 -0.0668944 -0.0849773 -0.081188336
000320 6a de 9e 3c 87 b3 4c 3c 3e ce 4d 3d b6 72 25 bd
       0.019393165 0.0124939745 0.050245516 -0.0403926
000330 91 61 99 3d 7c 85 18 bd 48 9f ab bd a3 d3 6e 3d
       0.074893124 -0.037236676 -0.0837999 0.0583073
000340 37 4a 83 bd bb fa 5d 3d 20 5e 1c 3b 83 04 3e 3d
       -0.0641064 0.054194193 0.0023859814 0.04639102
000350 84 54 0c 3c e8 34 0b 3d 18 37 be bc 64 25 9f 3d
       0.008565072 0.033986002 -0.02321963 0.077708036
000360 c3 de 0c 3d af d0 02 3d 1e f6 dc bc 95 97 ea 3c
       0.03439213 0.031937297 -0.026972827 0.028636733
000370 59 af e3 bc 4f cb bb 3c 91 17 59 bc 63 72 05 bd
       -0.027793573 0.022924094 -0.013250248 -0.03257979
000380 60 cb 51 bd 94 48 53 3c 98 51 68 bd 18 9e 75 bd
       -0.051219344 0.012895722 -0.05671844 -0.059965223
000390 1c e8 74 bc 48 ff 4f 3d dc bd ab bd af 55 9c 3d
       -0.014947917 0.050780565 -0.08385822 0.0763353
0003a0 0f 74 8d bd 8f 8d c2 bb c0 9a 88 3d 47 60 62 bd
       -0.06906902 -0.0059372853 0.06670141 -0.0552676
0003b0 07 ef 47 bd 63 90 1e 3d 4a 0f eb 3c 4e 8e 24 bc
       -0.04881194 0.038711917 0.028693814 -0.010043694
0003c0 39 d8 57 3b 1d 81 f5 bc f2 cf 0a 3d de 4a d5 bb
       0.0032935275 -0.029968793 0.03388972 -0.006509169
0003d0 cf 97 70 bd 6f 94 8b bd b4 54 23 bd fc da 73 bd
       -0.058738526 -0.06815421 -0.0398757 -0.05953501
0003e0 9e 29 3e bd 0c 37 b9 38 ed af b8 3c 82 e4 8b bd
       -0.046426408 8.831741e-05 0.022544825 -0.06830694
0003f0 b2 f3 3f 3c b1 75 7e bc a6 06 44 bd d1 95 11 3c
       0.011715816 -0.0155309895 -0.047857903 0.008885817

bias f4 [64]
000000 15 62 0c 3d ce 77 56 bd 0e 6c be bd f3 b9 6a bd
       0.034273226 -0.05236035 -0.092979535 -0.05730624
000010 af a6 50 be 81 bf 07 bc 8b 2f 94 bd a7 b3 ff bc
       -0.20376085 -0.008285404 -0.072356306 -0.031213595
000020 3b 6d 01 3c 68 85 c0 bd e1 83 cc bc 8a a9 53 bd
       0.007899578 -0.09400445 -0.024965229 -0.051675357
000030 b5 4b 17 bd 53 1c 4a bd 18 c3 5c bd 24 00 40 be
       -0.036937434 -0.04934342 -0.053896993 -0.18750054
000040 2d 96 53 bd dd ad b3 3b 5c e1 73 bd 5c 50 9a bc
       -0.05165689 0.0054833726 -0.05954109 -0.018837146
000050 77 df d8 bd 5b 0d 29 bd fa 5a 88 bd 3b 67 10 bd
       -0.105894975 -0.041272502 -0.066579774 -0.0352547
000060 14 97 19 bc 5c fd 97 3a 3c 65 7e 3b f6 b6 0e bd
       -0.009374399 0.0011595893 0.0038817665 -0.034842454
000070 bb 91 86 bd 03 1f 03 bd 40 db 3b bd b3 4f 67 bd
       -0.06570765 -0.032011997 -0.04586339 -0.05647249
000080 6d f8 c0 bc 69 a8 c4 bd 28 be 6b bd 9d b9 28 bd
       -0.023555959 -0.09602434 -0.057554394 -0.04119264
000090 3d 94 33 bd 72 ab 40 bd 76 ae ae bd 2c 80 7d bd
       -0.043842543 -0.047038503 -0.085293695 -0.061889812
0000a0 ec 46 e7 bd 70 8d 11 bd ca 56 96 bd 91 a9 70 bb
       -0.11292824 -0.035535276 -0.073407724 -0.0036722163
0000b0 a3 8f 61 bd 6e fc 06 be 1b cf f0 bc 31 b7 13 bd
       -0.055068623 -0.13182232 -0.02939563 -0.036063377
0000c0 0c 95 b6 bd 64 fe 24 bd 07 ef b1 3a c8 c7 53 bd
       -0.08915147 -0.04028167 0.0013575264 -0.051704198
0000d0 71 55 2f bc 01 39 39 bd e5 6f 8b bd 3c 6d 04 be
       -0.010701523 -0.04522038 -0.068084516 -0.12932295
0000e0 15 fc f8 3c 4e c7 8b bc 41 b7 09 be 3f 18 e3 bd
       0.03039364 -0.01706281 -0.13448812 -0.11088609
0000f0 47 a8 d8 bc 7c b5 4b bd 0a d9 5d bd fd ed 22 bd
       -0.026447428 -0.049733624 -0.054162063 -0.039777745

weight f4 [64, 3136]
000000 5a 9d c8 bb 70 c6 8b 3c 6a 56 15 ba 44 b1 91 bc
       -0.0061222734 0.017062396 -0.00056967756 -0.017784722
000010 83 ea b8 3c d5 00 4e 3c d1 e5 76 bc 31 52 71 3c
       0.022572761 0.012573441 -0.015069441 0.014729069
000020 ef 65 71 bc 0c 4d 94 bc e5 40 a8 bc d6 f4 7c 3b
       -0.0147337755 -0.018103145 -0.020538757 0.0038598082
000030 87 32 81 ba 02 14 a3 bb f4 46 81 bc a5 da da 3b
       -0.0009856977 -0.0049767504 -0.015780903 0.0066788965
000040 6b 8a 49 ba 03 9a be bc 1d 76 3d bc 70 71 24 bb
       -0.00076881674 -0.023266798 -0.011563805 -0.0025092028
000050 97 ab 8b bc c8 a2 0f 3c 66 a0 58 3c 59 9f 4a 3c
       -0.017049594 0.008766837 0.013221836 0.012367093
000060 bb fc b6 bc 6d 83 20 bd 45 a0 e4 bb 77 f8 92 bc
       -0.022337308 -0.039187837 -0.0069771134 -0.017940743
000070 64 a2 90 3a be 59 09 3c 3d e9 ba bc 2d 0c 7d 3c
       0.0011034724 0.008383213 -0.022816295 0.015444797
000080 29 94 75 3c 11 9b 96 3c ab b1 c7 3c 18 07 75 3c
       0.014988937 0.018384488 0.02437671 0.014955305
000090 b5 d0 63 bc 5a 6c 8e 3c c0 83 6b 3d 61 4b 9c 3c
       -0.01390474 0.01738565 0.057498693 0.019078912
0000a0 47 bc 0e bd 6e 10 77 3c f5 02 73 3c 8c c0 70 bc
       -0.034847524 0.015079601 0.014832248 -0.014694344
0000b0 75 ce dc bb 4b 7e ef 3b 0f e0 93 bb 67 e5 e8 3a
       -0.006738479 0.0073087565 -0.004512794 0.0017768563
0000c0 24 e3 e3 bb ff 2a 58 bc 99 b6 b5 bc a6 1a 5d 3c
       -0.0069545675 -0.013193845 -0.022181796 0.013495123
0000d0 24 b2 b3 3c 21 e0 d3 3c a2 0b 9c bc d1 53 99 3b
       0.02193553 0.025863709 -0.019048516 0.004679181
0000e0 90 1b 0e 3c 15 db 77 3c 93 90 c0 3c a1 e0 80 bb
       0.008673564 0.015127917 0.023506438 -0.003933028
0000f0 4a 29 cd 3c d9 96 3e bb d8 4b 96 3c 0e f5 78 bc
       0.025044102 -0.0029081611 0.018346712 -0.015195144
000100 0d 06 1b bd 55 7f 56 bd ad 52 9c bd 69 88 b3 bd
       -0.037847567 -0.052367527 -0.07632957 -0.087662525
000110 2f ea ee bb db 2a ba bc d6 4b 9d bc e2 c7 ea 3a
       -0.0072911005 -0.022725513 -0.0192012 0.0017912353
000120 71 73 03 bd 89 c7 d6 bc bc 95 b4 bc 5a 6b 1f 3d
       -0.032092515 -0.026218193 -0.022044055 0.038920738
000130 af 1f 01 3b 61 16 30 3c 24 8a 3a 3d 70 1b 5f 3c
       0.0019702723 0.010747523 0.045541897 0.013617381
000140 fe 9e a1 3b d3 e0 b5 3b 3d 71 54 bd 65 69 72 bc
       0.0049322834 0.005550483 -0.051865805 -0.014795636
000150 2e 48 1e bc 49 22 de 3b 78 45 de 3c c1 c7 04 bc
       -0.009660764 0.0067789895 0.027132735 -0.008104266
000160 dd c1 2e bd 0e ea 99 bc 7f 4f 94 39 b9 48 fe bb
       -0.04266535 -0.018788364 0.0002828799 -0.007760134
000170 54 88 9d bb f0 64 67 3c e6 b9 83 3c 31 b7 66 bc
       -0.0048075113 0.0141231865 0.016079854 -0.014081762
000180 e0 f1 f8 bb 93 b3 7a 3c 67 d7 ed 3a 57 b4 48 bc
       -0.007597193 0.015301603 0.001814586 -0.012250028
000190 47 58 80 ba e8 d5 7b 3b 9b 03 6a bc 29 6f a0 bc
       -0.0009791934 0.0038427059 -0.014283086 -0.019584255
0001a0 0b dd c2 bb 2b 6c 08 bc 1c df 6b bc 57 f5 8b bb
       -0.0059467605 -0.0083265705 -0.014396455 -0.00427119
0001b0 ba 67 a1 bb be a2 a3 3b 48 93 39 ba cb b4 a3 3b
       -0.0049256952 0.0049937656 -0.00070791366 0.0049959174
0001c0 d0 a5 9f 3b 5d df 7f 3b e0 32 87 ba 0e 33 04 bd
       0.0048720613 0.0039043047 -0.0010314845 -0.032275252
0001d0 ca 1c a3 bc e7 d4 08 3c fc 29 fc 3b 4b 6f 8a bc
       -0.019911189 0.008351541 0.0076954346 -0.016898772
0001e0 7f 98 11 3c 0c 8a 3a 3c d5 84 db 3c 4e 06 9f 3c
       0.008886456 0.011385452 0.026796738 0.019412186
0001f0 f1 7d 07 3c e3 39 88 3b 82 29 91 bc 60 ce 03 bd
       0.008269773 0.0041572913 -0.017719988 -0.032179236
000200 2a 2f 17 bd 74 71 af bc 10 72 c1 bb 56 ec 9d bc
       -0.036910214 -0.021416403 -0.00590349 -0.019277733
000210 60 be aa bc 34 cc e5 bb 66 7a 02 3c 9b a1 52 bc
       -0.020842731 -0.0070128683 0.007963752 -0.012855913
000220 44 5f c7 bc 6f 89 81 3c 12 42 b5 3b d4 1b 4c 3c
       -0.024337418 0.015812604 0.005531558 0.012457807
000230 09 93 3f bc 73 1c 40 bb c5 ba 13 3d 29 1e 50 3d
       -0.011692771 -0.0029313832 0.03606679 0.050810013
000240 83 24 01 3d 6c 32 9c b9 6a 0c 4d bc 40 7f 26 bc
       0.03152896 -0.00029792206 -0.012515167 -0.010162175
000250 4c 7f 11 3b e2 96 2a bc b2 a5 a1 bb cb 3a 5e 3c
       0.002220112 -0.01041195 -0.0049330825 0.013563822
000260 46 9d 4a 3c 91 b2 de 3b a7 3c 3b ba 65 a0 9b bb
       0.0123665985 0.006796189 -0.0007142522 -0.004749345
000270 ae 36 e6 3b bd 59 e4 3b 48 7e 78 bb f9 70 4c bc
       0.0070255613 0.0069687054 -0.0037917066 -0.012478107
000280 6b de 8e bb 5a 3e 4a bc 04 23 27 bc 88 9a 86 bb
       -0.0043600104 -0.012343967 -0.0102012195 -0.004107777
000290 b0 cb c2 3c cc a8 0a bd 82 fa f3 3a 16 45 aa 3b
       0.023778766 -0.033852383 0.0018614086 0.005196224
0002a0 89 04 85 3c 78 b8 d7 3c 5c 0d db 3c 70 32 7e 3d
       0.016237514 0.026333079 0.026739769 0.06205982
0002b0 62 ce 06 3d f9 db b7 3c 77 b8 a4 b9 8a f1 ec 3b
       0.032911666 0.022443758 -0.00031417955 0.007230942
0002c0 7f f9 0d 3d 31 13 d8 3c d6 81 f6 3b d0 0a 09 bc
       0.034661766 0.026376339 0.007522802 -0.008364394
0002d0 22 bb 34 bd 14 f8 c2 bc dd eb b8 bc aa c8 ab bc
       -0.044123776 -0.023799933 -0.022573406 -0.020969708
0002e0 0e 36 e2 bb 22 36 d9 3b 59 8c 53 bd 75 c4 7b bd
       -0.0069034165 0.0066287676 -0.051647518 -0.061466653
0002f0 41 43 ca bc 16 7b 8d 3c d0 a1 8d 3b ec b2 c9 3c
       -0.024690272 0.017270606 0.004322268 0.02462145
000300 0f 46 2e 3c 71 e1 93 bc 12 39 68 bc 3e 80 4b 3c
       0.01063682 -0.018051835 -0.014173763 0.012420712
000310 a8 3e 50 bc 3a 55 91 bc 40 de 05 bd 3f 15 86 bc
       -0.012710251 -0.017740835 -0.032682657 -0.016367553
000320 85 9c 48 bc a4 cb 84 bc eb 35 70 bc c2 a5 5e bc
       -0.012244348 -0.016210385 -0.014661293 -0.013589324
000330 56 71 97 bc 04 f1 42 3c 61 27 14 bd e6 be 90 bc
       -0.01848666 0.011898283 -0.036170367 -0.017669152
000340 48 da 5c ba 00 f5 ef 3a 81 f5 17 3c ea b1 08 3d
       -0.00084248604 0.0018307269 0.009274841 0.033372797
000350 76 d5 35 3c 46 27 15 3d e5 d2 27 3d 32 94 ee 3c
       0.011098256 0.036414407 0.04097261 0.0291234
000360 ca 48 1d 3c 0d c4 c3 3b dc 9f 0d bd 52 2b 04 bd
       0.009599874 0.005974299 -0.034576282 -0.032267876
000370 07 82 8d 3c 8c 98 44 3d b5 3b 93 3c 56 b6 0a bd
       0.017273916 0.047997043 0.017972806 -0.033865295
000380 48 e7 38 3a 2c dd 9e bc 53 c5 4d bc 4f 6c 3d bb
       0.00070535066 -0.019392572 -0.012559253 -0.0028903668
000390 2c 69 10 bc 81 09 3a bd 3e 66 3d bc 79 5b 8d 3b
       -0.008814137 -0.04541922 -0.011560021 0.004313883
0003a0 61 7a 85 bb 0a 95 f4 b9 fe 2c 5e bc 2a 1d 37 3c
       -0.0040734266 -0.0004665035 -0.013560532 0.011176387
0003b0 84 5b 01 3c 35 59 ee bc f7 3f 5c 3c 50 26 39 3c
       0.007895354 -0.029095272 0.013442985 0.011300638
0003c0 42 14 15 3d 2f d7 9f 3d 4b 2e 58 3c e6 74 50 bc
       0.036396272 0.07804715 0.013194631 -0.012723183
0003d0 7d 9e 3e 3c 2c b3 92 bb 6c 17 68 3c 26 e9 8c 3a
       0.011634466 -0.0044769254 0.01416574 0.0010750636
0003e0 f6 f5 5e bc 7d 01 93 39 46 7f 62 bc bc c2 ed 3a
       -0.013608446 0.00028039134 -0.01382429 0.00181397
0003f0 ee 8a 21 3c 20 d1 3b 3b 27 b2 99 bc 30 8e 9f bc
       0.009859784 0.0028658584 -0.018761707 -0.01947698

bias f4 [64]
000000 9e f6 0f bd 89 e7 19 3c c6 1a c5 3c 8a cf a5 bc
       -0.0351473 0.009393581 0.024060618 -0.020240564
000010 c9 77 ae bc 53 64 2b 3c ef 31 dd 3b 7b 08 0d bb
       -0.021297352 0.010460931 0.0067503373 -0.0021519947
000020 c5 63 c8 bb 87 b8 95 3c e6 37 70 3a ce 10 3f 3c
       -0.006115409 0.018276466 0.0009163603 0.011661721
000030 a3 a8 31 3b 7c bc 9b 3b 6d 3c f9 3c 57 8e 95 bc
       0.0027108572 0.0047526937 0.030424321 -0.01825635
000040 9b 84 46 bc 9c 27 2c 3c 4d 0a 1d bb 3e 44 95 3b
       -0.012116577 0.0105074905 -0.0023962439 0.0045552542
000050 0f fd e1 3c 43 51 1f 3c 6d 25 ce 3b eb dc 98 3c
       0.027586488 0.009723964 0.0062910826 0.01866003
000060 37 fa e5 3c f4 f6 11 3d 01 0f 12 3c e6 29 9b bc
       0.028073413 0.035635903 0.00891471 -0.018940877
000070 91 be 38 3c 6f f3 ae 3c 4e bb 6d bc 1d b8 a7 3b
       0.011275903 0.021356313 -0.014509989 0.0051183836
000080 54 4c 7b bc 67 40 3c 3c 52 39 be bc 40 9b 02 ba
       -0.015338022 0.011489964 -0.023220692 -0.00049822405
000090 52 65 f8 bc 8f de 14 3d 51 25 86 3c a8 c4 ba 3b
       -0.03032175 0.03634506 0.016375216 0.005699713
0000a0 1d 5b c5 3c 70 71 f9 3b 39 ec ed 3c de a1 83 3c
       0.024091298 0.0076123998 0.029043304 0.016068395
0000b0 7e c0 80 bc 8a 61 81 3c 1d 99 0c bc 1d 7f ae 3b
       -0.015716787 0.01579358 -0.008581427 0.0053252117
0000c0 dc c9 4e bc 96 d4 d0 3c 0e fb 26 3c 4a c5 89 3b
       -0.012621369 0.025491994 0.010191692 0.004204427
0000d0 22 67 f5 ba 13 6c 2c bb ae 88 fa bb 61 0e 30 3d
       -0.0018722753 -0.0026309534 -0.007645688 0.042982463
0000e0 de 0b ea bb 08 10 dc 3c 49 1c 99 3c 59 5c d0 b9
       -0.007142528 0.026863113 0.018690245 -0.00039741656
0000f0 b1 de 8f bc 3c 7d 9f 3c ca bb 59 3c cb c2 03 bd
       -0.017562242 0.019468896 0.013289401 -0.03216819

weight f4 [10, 64]
000000 42 14 09 be e2 6e 67 be ed 23 8c 3e 82 0a 08 be
       -0.13386634 -0.22600892 0.2737116 -0.13285258
000010 44 d5 2f bd 1a 49 40 be 19 75 31 3e e8 ce a4 3e
       -0.042927995 -0.18777886 0.17329825 0.32189107
000020 f2 25 0d 3c e5 e8 b7 3e 1c e3 08 be 5b e6 85 be
       0.008615004 0.35919872 -0.13367885 -0.2615231
000030 d2 96 3a 3e 69 93 eb bc a4 37 0d be 54 1d 43 be
       0.18221596 -0.028756814 -0.13790756 -0.19054157
000040 d1 b5 30 be 50 be d2 bd 98 4b aa bd 27 67 5d be
       -0.17256857 -0.102902055 -0.083151996 -0.21621381
000050 4c be a5 be d8 a8 24 3e a5 13 45 3e d7 ed 9d be
       -0.32371747 0.16080034 0.19245775 -0.3084552
000060 6d 3d 8a 3e 26 47 3c be 4d dd 78 3e 98 d9 0a 3e
       0.2699999 -0.18386516 0.2430317 0.13559568
000070 89 09 72 3e 65 21 8c 3e 1c 63 6e be 69 da 77 3e
       0.2363645 0.27369228 -0.23279995 0.2420441
000080 be ef 06 3d ed b9 8a 3e f5 3a 00 be 65 c3 1e be
       0.03294348 0.27094975 -0.1252249 -0.15504225
000090 ae b9 70 be f7 bc 34 be 71 de 82 be dc 02 29 3d
       -0.23508331 -0.1765021 -0.25560334 0.041262493
0000a0 a5 d9 55 3e 97 3b fd bd 47 a8 9e be bd 9f cf bd
       0.20883806 -0.123648815 -0.3098776 -0.101378895
0000b0 f6 0b 88 3e ae cc 8a be 65 bf df 3c 92 5e 91 3e
       0.26571625 -0.27109283 0.027312944 0.28392464
0000c0 75 6d 11 be a2 f3 a7 be 8d 8e 48 be b0 9c 91 3d
       -0.14201911 -0.32803065 -0.19585629 0.07109964
0000d0 cb 5d 3c be 07 f5 a2 bd 3e 69 4b 3d af 16 7d 3e
       -0.18395154 -0.079568915 0.049660914 0.24715684
0000e0 0d 2d 9b 3d 51 6a 8c be 28 21 7c 3e c6 5e 77 3e
       0.07576952 -0.27424863 0.24622023 0.24157247
0000f0 fb e8 77 be 12 ef 94 bc e9 09 05 be f2 7e 1c be
       -0.24209969 -0.018180404 -0.12992062 -0.15282801
000100 9c 73 b9 be f5 e7 4d 3d 11 e3 49 be 20 07 2b 3d
       -0.36221015 0.05027004 -0.19715525 0.04175484
000110 a8 d5 3e be eb 7f 88 3e 5d b1 0c 3d 32 e6 5e 3e
       -0.18636191 0.26660094 0.034348834 0.217675
000120 5a 31 74 3b 8a 18 09 be 63 79 6d be 74 7f 44 3e
       0.003726086 -0.13388267 -0.23190837 0.19189245
000130 a1 7f 6a be 06 1f d8 3d 39 19 60 3e 6d e6 52 be
       -0.22900249 0.10552792 0.21884622 -0.20595713
000140 f5 3c b9 bc a3 45 b5 be af 96 48 3e d4 81 2a 3e
       -0.022612074 -0.3540469 0.19588731 0.16651088
000150 64 76 88 3e 18 64 c4 be 56 7e 6f be ce 56 0a 3e
       0.26652825 -0.38357615 -0.23388037 0.13509676
000160 49 e6 3d be 9d 3e 8f 3e 88 12 80 3e 32 fe 09 3d
       -0.18544878 0.27977458 0.25014138 0.033689685
000170 bb ab 5b be 75 21 8d be f9 00 42 be 17 0f 92 bd
       -0.21452229 -0.27564588 -0.18945684 -0.071317844
000180 9e 58 af bd 7e 00 4d 3e d0 86 a0 be 55 49 39 be
       -0.08561824 0.20019719 -0.31352854 -0.1809438
000190 07 65 89 be f0 34 01 3f 4d 35 4c 3e 72 f0 e7 bd
       -0.2683489 0.504714 0.19942208 -0.11325158
0001a0 27 54 91 be d2 51 a1 be 51 53 8d 3e 7f 73 6f 3e
       -0.28384516 -0.31507736 0.27602628 0.23383902
0001b0 b7 0b 0d be ca 80 a2 be c7 ef 34 3e 69 07 44 be
       -0.13774 -0.31738883 0.17669593 -0.19143452
0001c0 7f c1 a0 3e 24 aa 02 3e 02 88 3f 3e 11 68 28 be
       0.31397626 0.12760216 0.18704227 -0.16445948
0001d0 7a 9f 41 3e 9a 9e a8 3e 8f be fd bc 7b 8c 8a 3e
       0.18908492 0.32933503 -0.030974654 0.27060303
0001e0 1e ad 81 bd b9 86 85 3e 01 da 70 be c9 c6 a3 be
       -0.063318476 0.26079348 -0.23520662 -0.319876
0001f0 e0 73 88 3e 37 9f 63 3e db 52 91 3e 15 6b 46 be
       0.26650906 0.22228704 0.28383526 -0.19376786
000200 f6 f9 7e be 28 e1 98 3e f1 58 40 3e e0 12 6a 3e
       -0.2490004 0.2985928 0.18783928 0.22858763
000210 56 f4 5d 3e 2d 34 89 be 9c 4a db 3d 6f a0 25 be
       0.21675238 -0.2679762 0.1070759 -0.16174482
000220 a2 26 6f bd 70 ca 86 be a0 4f 57 3e 17 15 80 3e
       -0.058386452 -0.26326323 0.21026468 0.2501609
000230 a7 e4 ca 3d 23 48 fe 3d a7 08 96 be 6c 1f 8a be
       0.09906893 0.12416103 -0.29303476 -0.26977098
000240 c9 38 29 3e eb db 8a be d3 22 22 be 09 fe 83 3e
       0.16525568 -0.2712091 -0.15833597 0.2577975
000250 50 b8 96 3e 17 2e c6 3d 54 ec 21 3e 18 d8 b1 be
       0.29437494 0.0967676 0.15812808 -0.3473518
000260 6a a0 52 3e 87 98 91 be 44 c9 a4 be a4 81 b7 bc
       0.20569006 -0.28436682 -0.32184803 -0.022400685
000270 2a 13 1e 3c 7c f8 26 be 8a 2e 26 be 3e 0f 3c 3e
       0.009648124 -0.16305727 -0.1622869 0.1836519
000280 ae aa ee bd d9 45 77 3e e7 fd 6b be ad 88 8a bd
       -0.11653648 0.24147739 -0.23046075 -0.0676435
000290 68 fe f7 3c fb 0f 25 be 76 b3 8e 3e 63 3d 81 3d
       0.030272678 -0.16119377 0.27871293 0.06310537
0002a0 56 ab ad be 9c b1 26 be 48 4d 5d be de 20 86 bc
       -0.3391978 -0.1627869 -0.21611512 -0.016373094
0002b0 df 5e 83 3e 84 c5 29 be 1f 57 8f 3e 8a 5d 73 3e
       0.25658318 -0.16579252 0.27996156 0.23766151
0002c0 9e bc 38 bd 95 83 16 3e bb 33 34 3e 01 64 a3 bc
       -0.045101754 0.14698632 0.17597859 -0.019945147
0002d0 fc 9e 5e 3e 25 2f 0b be 5e 1d a8 3e 0f 17 08 be
       0.21740335 -0.13592203 0.32834905 -0.13290046
0002e0 57 6b dc 3d 98 c7 02 be ed cd 90 be 98 ca 8a 3e
       0.10762661 -0.12771451 -0.2828211 0.27107692
0002f0 b7 59 83 be 49 59 83 3e 03 28 01 bd 2e 66 d3 bd
       -0.25654384 0.25654057 -0.0315323 -0.103222236
000300 b0 b6 51 3e 03 9c 8c 3e ed cd 61 be 98 da 85 3e
       0.20479846 0.27462777 -0.2205121 0.26143336
000310 dc a6 58 be 7f 40 7c be 05 48 45 3e af 2c 3c 3d
       -0.21157402 -0.24633978 0.19265755 0.04594105
000320 b8 db f6 bd ae 1c f9 bd 35 22 50 be d2 a4 5c 3e
       -0.12053627 -0.12163673 -0.20325549 0.21547249
000330 b2 00 55 3e 86 fe ed 3d b5 b5 92 be 6c 86 18 be
       0.20801046 0.11620812 -0.28654256 -0.14895028
000340 21 bd 06 be 5a f6 8a 3e c3 48 c0 be 6b c7 68 3e
       -0.13158084 0.27141076 -0.37555513 0.22732322
000350 49 c3 67 bd 44 d5 19 3e 55 85 13 3d 89 78 46 3e
       -0.056582723 0.1502276 0.036015827 0.19381918
000360 5f 45 0b be 69 2c 6c be 21 d6 9e be 4a 44 4a bd
       -0.13600682 -0.23063816 -0.31022742 -0.04938153
000370 51 01 bc bd 13 e6 e8 bc a2 b1 32 be fc f7 a4 be
       -0.091799386 -0.02843002 -0.17450574 -0.32220447
000380 f6 fc 0d bc 7b 43 4b bd fe 14 88 3e bc 53 8f 3e
       -0.008666268 -0.0496249 0.26578516 0.27993572
000390 ab c5 20 be 4e 07 2d bc af 95 bf bd 64 d9 04 bd
       -0.15700404 -0.010560824 -0.09354722 -0.032433882
0003a0 fc e6 a3 be 5e 5d 93 bd d5 a4 3b be a0 af 1f be
       -0.32012165 -0.07195543 -0.18324597 -0.1559434
0003b0 56 53 6a 3e 84 1b 34 be 79 d5 48 3e 0c 32 45 be
       0.22883353 -0.17588621 0.19612683 -0.19257373
0003c0 89 78 a2 3e 95 e7 b8 3d b4 ad 6d 3e bf 46 54 be
       0.31732586 0.09028546 0.23210794 -0.20730112
0003d0 31 25 bf 3d 44 04 8e 3e 4e 2f 03 be d6 36 91 be
       0.093332656 0.2773763 -0.12811014 -0.2836215
0003e0 cf 46 ff bd 6e 61 4c be d0 cb 34 3e 5f 2f 82 bd
       -0.124646775 -0.19959041 0.17655873 -0.063566916
0003f0 66 50 8f 3e 81 1e 8c be 4c 53 26 be 36 c0 ba 3e
       0.27991027 -0.27367023 -0.16242713 0.3647477

bias f4 [10]
000000 5b 1a b8 3d a3 a9 29 3d 09 74 99 3c dc 5c d6 bc
       0.08989402 0.041421544 0.018732088 -0.026167326
000010 92 7e 17 3d 66 6d 1d be 98 db 9d bd a6 8e a4 3d
       0.03698594 -0.15373763 -0.077079 0.080350205
000020 0b 5d b3 3d 58 13 ba 3d
       0.08757981 0.09085721
